…
08-30 22:09:46 steps: 80, 95, 105
08-30 22:09:46 criterion: CeLoss
08-30 22:09:46 middle_epoch: 25
08-30 22:09:46 max_epoch: 50
08-30 22:09:46 print_step: 600
08-30 22:09:46 wandb: True
08-30 22:09:46 using 1 gpus



100%|██████████| 5/5 [00:09<00:00,  1.87s/it]





100%|██████████| 5/5 [00:09<00:00,  1.84s/it]
08-30 22:10:12 ==========================================================================================
Layer (type:depth-idx)                   Output Shape              Param #
==========================================================================================
Sequential                               [128, 5]                  --
├─ALSTMAdFeatures: 1-1                   [128, 128]                --
│    └─Sequential: 2-1                   [128, 60, 300]            --
│    │    └─Conv1d: 3-1                  [128, 32, 300]            2,720
│    │    └─ReLU: 3-2                    [128, 32, 300]            --
│    │    └─Conv1d: 3-3                  [128, 60, 300]            5,820
│    │    └─ReLU: 3-4                    [128, 60, 300]            --
│    └─GRU: 2-2                          [128, 300, 64]            124,800
│    └─GRU: 2-3                          [128, 300, 32]            27,072
│    └─Sequential: 2-4                   [128, 300, 1]             --
│    │    └─Linear: 3-5                  [128, 300, 16]            528
│    │    └─ReLU: 3-6                    [128, 300, 16]            --
│    │    └─Linear: 3-7                  [128, 300, 1]             16
│    │    └─Softmax: 3-8                 [128, 300, 1]             --
│    └─Linear: 2-5                       [128, 2048]               19,662,848
│    └─Linear: 2-6                       [128, 128]                262,272
├─Sequential: 1-2                        [128, 128]                --
│    └─Linear: 2-7                       [128, 128]                16,512
│    └─ReLU: 2-8                         [128, 128]                --
│    └─Dropout: 2-9                      [128, 128]                --
├─Linear: 1-3                            [128, 5]                  645
==========================================================================================
Total params: 20,103,233
Trainable params: 20,103,233
Non-trainable params: 0
Total mult-adds (G): 8.71
==========================================================================================
Input size (MB): 1.84
Forward/backward pass size (MB): 65.34
Params size (MB): 80.41
Estimated Total Size (MB): 147.60
==========================================================================================
08-30 22:10:12 -----Epoch 0/49-----
08-30 22:10:12 current lr: [0.001, 0.001, 0.001]
==========================================================================================
Layer (type:depth-idx)                   Output Shape              Param #
==========================================================================================
Sequential                               [128, 5]                  --
├─ALSTMAdFeatures: 1-1                   [128, 128]                --
│    └─Sequential: 2-1                   [128, 60, 300]            --
│    │    └─Conv1d: 3-1                  [128, 32, 300]            2,720
│    │    └─ReLU: 3-2                    [128, 32, 300]            --
│    │    └─Conv1d: 3-3                  [128, 60, 300]            5,820
│    │    └─ReLU: 3-4                    [128, 60, 300]            --
│    └─GRU: 2-2                          [128, 300, 64]            124,800
│    └─GRU: 2-3                          [128, 300, 32]            27,072
│    └─Sequential: 2-4                   [128, 300, 1]             --
│    │    └─Linear: 3-5                  [128, 300, 16]            528
│    │    └─ReLU: 3-6                    [128, 300, 16]            --
│    │    └─Linear: 3-7                  [128, 300, 1]             16
│    │    └─Softmax: 3-8                 [128, 300, 1]             --
│    └─Linear: 2-5                       [128, 2048]               19,662,848
│    └─Linear: 2-6                       [128, 128]                262,272
├─Sequential: 1-2                        [128, 128]                --
│    └─Linear: 2-7                       [128, 128]                16,512
│    └─ReLU: 2-8                         [128, 128]                --
│    └─Dropout: 2-9                      [128, 128]                --
├─Linear: 1-3                            [128, 5]                  645
==========================================================================================
Total params: 20,103,233
Trainable params: 20,103,233
Non-trainable params: 0
Total mult-adds (G): 8.71
==========================================================================================
Input size (MB): 1.84
Forward/backward pass size (MB): 65.34
Params size (MB): 80.41
Estimated Total Size (MB): 147.60
…
