…
07-25 16:58:30 gamma: 0.8
07-25 16:58:30 steps: 80, 95, 105
07-25 16:58:30 criterion: CeLoss
07-25 16:58:30 middle_epoch: 70
07-25 16:58:30 max_epoch: 128
07-25 16:58:30 print_step: 600
07-25 16:58:30 using 1 gpus


100%|██████████| 5/5 [00:06<00:00,  1.28s/it]




100%|██████████| 5/5 [00:08<00:00,  1.79s/it]
07-25 16:58:51 ==========================================================================================
Layer (type:depth-idx)                   Output Shape              Param #
==========================================================================================
Sequential                               [128, 5]                  --
├─Res_AltsmFeatures: 1-1                 [128, 128]                --
│    └─Res_Altsm: 2-1                    [128, 128]                689,024
│    │    └─Conv1d: 3-1                  [128, 32, 128]            3,104
│    │    └─ReLU: 3-2                    [128, 32, 128]            --
│    │    └─AvgPool1d: 3-3               [128, 32, 64]             --
│    │    └─ResidualBlock: 3-4           [128, 64, 32]             20,672
│    │    └─GRU: 3-5                     [128, 32, 64]             94,080
│    │    └─Sequential: 3-6              [128, 32, 1]              8,448
├─Sequential: 1-2                        [128, 128]                --
│    └─Linear: 2-2                       [128, 128]                16,512
│    └─ReLU: 2-3                         [128, 128]                --
│    └─Dropout: 2-4                      [128, 128]                --
├─Linear: 1-3                            [128, 5]                  645
==========================================================================================
Total params: 832,485
Trainable params: 832,485
Non-trainable params: 0
Total mult-adds (M): 524.16
==========================================================================================
Input size (MB): 2.10
Forward/backward pass size (MB): 16.95
Params size (MB): 0.57
Estimated Total Size (MB): 19.62
==========================================================================================
07-25 16:58:51 -----Epoch 0/127-----
07-25 16:58:51 current lr: [0.001, 0.001, 0.001, 0.001]
==========================================================================================
Layer (type:depth-idx)                   Output Shape              Param #
==========================================================================================
Sequential                               [128, 5]                  --
├─Res_AltsmFeatures: 1-1                 [128, 128]                --
│    └─Res_Altsm: 2-1                    [128, 128]                689,024
│    │    └─Conv1d: 3-1                  [128, 32, 128]            3,104
│    │    └─ReLU: 3-2                    [128, 32, 128]            --
│    │    └─AvgPool1d: 3-3               [128, 32, 64]             --
│    │    └─ResidualBlock: 3-4           [128, 64, 32]             20,672
│    │    └─GRU: 3-5                     [128, 32, 64]             94,080
│    │    └─Sequential: 3-6              [128, 32, 1]              8,448
├─Sequential: 1-2                        [128, 128]                --
│    └─Linear: 2-2                       [128, 128]                16,512
│    └─ReLU: 2-3                         [128, 128]                --
│    └─Dropout: 2-4                      [128, 128]                --
├─Linear: 1-3                            [128, 5]                  645
==========================================================================================
Total params: 832,485
Trainable params: 832,485
Non-trainable params: 0
Total mult-adds (M): 524.16
==========================================================================================
Input size (MB): 2.10
Forward/backward pass size (MB): 16.95
Params size (MB): 0.57
Estimated Total Size (MB): 19.62
==========================================================================================
…
