…
08-30 22:25:47 steps: 80, 95, 105
08-30 22:25:47 criterion: CeLoss
08-30 22:25:47 middle_epoch: 25
08-30 22:25:47 max_epoch: 50
08-30 22:25:47 print_step: 600
08-30 22:25:47 wandb: True
08-30 22:25:47 using 1 gpus

100%|██████████| 3/3 [00:04<00:00,  1.52s/it]


100%|██████████| 3/3 [00:04<00:00,  1.56s/it]
08-30 22:26:02 ==========================================================================================
Layer (type:depth-idx)                   Output Shape              Param #
==========================================================================================
Sequential                               [128, 3]                  --
├─ALSTMAdFeatures: 1-1                   [128, 128]                --
│    └─Sequential: 2-1                   [128, 60, 300]            --
│    │    └─Conv1d: 3-1                  [128, 32, 300]            2,720
│    │    └─ReLU: 3-2                    [128, 32, 300]            --
│    │    └─Conv1d: 3-3                  [128, 60, 300]            5,820
│    │    └─ReLU: 3-4                    [128, 60, 300]            --
│    └─GRU: 2-2                          [128, 300, 64]            124,800
│    └─GRU: 2-3                          [128, 300, 32]            27,072
│    └─Sequential: 2-4                   [128, 300, 1]             --
│    │    └─Linear: 3-5                  [128, 300, 16]            528
│    │    └─ReLU: 3-6                    [128, 300, 16]            --
│    │    └─Linear: 3-7                  [128, 300, 1]             16
│    │    └─Softmax: 3-8                 [128, 300, 1]             --
│    └─Linear: 2-5                       [128, 2048]               19,662,848
│    └─Linear: 2-6                       [128, 128]                262,272
├─Sequential: 1-2                        [128, 128]                --
│    └─Linear: 2-7                       [128, 128]                16,512
│    └─ReLU: 2-8                         [128, 128]                --
│    └─Dropout: 2-9                      [128, 128]                --
├─Linear: 1-3                            [128, 3]                  387
==========================================================================================
Total params: 20,102,975
Trainable params: 20,102,975
Non-trainable params: 0
Total mult-adds (G): 8.71
==========================================================================================
Input size (MB): 1.84
Forward/backward pass size (MB): 65.34
Params size (MB): 80.41
Estimated Total Size (MB): 147.59
==========================================================================================
08-30 22:26:02 -----Epoch 0/49-----
08-30 22:26:02 current lr: [0.001, 0.001, 0.001]
==========================================================================================
Layer (type:depth-idx)                   Output Shape              Param #
==========================================================================================
Sequential                               [128, 3]                  --
├─ALSTMAdFeatures: 1-1                   [128, 128]                --
│    └─Sequential: 2-1                   [128, 60, 300]            --
│    │    └─Conv1d: 3-1                  [128, 32, 300]            2,720
│    │    └─ReLU: 3-2                    [128, 32, 300]            --
│    │    └─Conv1d: 3-3                  [128, 60, 300]            5,820
│    │    └─ReLU: 3-4                    [128, 60, 300]            --
│    └─GRU: 2-2                          [128, 300, 64]            124,800
│    └─GRU: 2-3                          [128, 300, 32]            27,072
│    └─Sequential: 2-4                   [128, 300, 1]             --
│    │    └─Linear: 3-5                  [128, 300, 16]            528
│    │    └─ReLU: 3-6                    [128, 300, 16]            --
│    │    └─Linear: 3-7                  [128, 300, 1]             16
│    │    └─Softmax: 3-8                 [128, 300, 1]             --
│    └─Linear: 2-5                       [128, 2048]               19,662,848
│    └─Linear: 2-6                       [128, 128]                262,272
├─Sequential: 1-2                        [128, 128]                --
│    └─Linear: 2-7                       [128, 128]                16,512
│    └─ReLU: 2-8                         [128, 128]                --
│    └─Dropout: 2-9                      [128, 128]                --
├─Linear: 1-3                            [128, 3]                  387
==========================================================================================
Total params: 20,102,975
Trainable params: 20,102,975
Non-trainable params: 0
Total mult-adds (G): 8.71
==========================================================================================
Input size (MB): 1.84
Forward/backward pass size (MB): 65.34
Params size (MB): 80.41
Estimated Total Size (MB): 147.59
…
