…
08-30 16:02:21 steps: 80, 95, 105
08-30 16:02:21 criterion: CeLoss
08-30 16:02:21 middle_epoch: 50
08-30 16:02:21 max_epoch: 100
08-30 16:02:21 print_step: 600
08-30 16:02:21 wandb: False
08-30 16:02:21 using 1 gpus
100%|██████████| 4/4 [00:02<00:00,  1.58it/s]

100%|██████████| 4/4 [00:02<00:00,  1.72it/s]
==========================================================================================
Layer (type:depth-idx)                   Output Shape              Param #
==========================================================================================
Sequential                               [128, 4]                  --
├─ALSTMAdFeatures: 1-1                   [128, 128]                --
│    └─Sequential: 2-1                   [128, 61, 300]            --
│    │    └─Conv1d: 3-1                  [128, 32, 300]            3,616
│    │    └─ReLU: 3-2                    [128, 32, 300]            --
│    │    └─Conv1d: 3-3                  [128, 61, 300]            5,917
│    │    └─ReLU: 3-4                    [128, 61, 300]            --
│    └─GRU: 2-2                          [128, 300, 64]            124,800
│    └─GRU: 2-3                          [128, 300, 32]            27,072
│    └─Sequential: 2-4                   [128, 300, 1]             --
│    │    └─Linear: 3-5                  [128, 300, 16]            528
│    │    └─ReLU: 3-6                    [128, 300, 16]            --
│    │    └─Linear: 3-7                  [128, 300, 1]             16
│    │    └─Softmax: 3-8                 [128, 300, 1]             --
│    └─Linear: 2-5                       [128, 2048]               19,662,848
│    └─Linear: 2-6                       [128, 128]                262,272
├─Sequential: 1-2                        [128, 128]                --
│    └─Linear: 2-7                       [128, 128]                16,512
│    └─ReLU: 2-8                         [128, 128]                --
│    └─Dropout: 2-9                      [128, 128]                --
├─Linear: 1-3                            [128, 4]                  516
==========================================================================================
Total params: 20,104,097
Trainable params: 20,104,097
Non-trainable params: 0
Total mult-adds (G): 8.75
==========================================================================================
Input size (MB): 2.46
Forward/backward pass size (MB): 65.65
Params size (MB): 80.42
Estimated Total Size (MB): 148.52
==========================================================================================
Model build successfully!
08-30 16:02:33 ==========================================================================================
Layer (type:depth-idx)                   Output Shape              Param #
==========================================================================================
Sequential                               [128, 4]                  --
├─ALSTMAdFeatures: 1-1                   [128, 128]                --
│    └─Sequential: 2-1                   [128, 61, 300]            --
│    │    └─Conv1d: 3-1                  [128, 32, 300]            3,616
│    │    └─ReLU: 3-2                    [128, 32, 300]            --
│    │    └─Conv1d: 3-3                  [128, 61, 300]            5,917
│    │    └─ReLU: 3-4                    [128, 61, 300]            --
│    └─GRU: 2-2                          [128, 300, 64]            124,800
│    └─GRU: 2-3                          [128, 300, 32]            27,072
│    └─Sequential: 2-4                   [128, 300, 1]             --
│    │    └─Linear: 3-5                  [128, 300, 16]            528
│    │    └─ReLU: 3-6                    [128, 300, 16]            --
│    │    └─Linear: 3-7                  [128, 300, 1]             16
│    │    └─Softmax: 3-8                 [128, 300, 1]             --
│    └─Linear: 2-5                       [128, 2048]               19,662,848
│    └─Linear: 2-6                       [128, 128]                262,272
├─Sequential: 1-2                        [128, 128]                --
│    └─Linear: 2-7                       [128, 128]                16,512
│    └─ReLU: 2-8                         [128, 128]                --
│    └─Dropout: 2-9                      [128, 128]                --
├─Linear: 1-3                            [128, 4]                  516
==========================================================================================
Total params: 20,104,097
Trainable params: 20,104,097
Non-trainable params: 0
Total mult-adds (G): 8.75
==========================================================================================
Input size (MB): 2.46
Forward/backward pass size (MB): 65.65
Params size (MB): 80.42
Estimated Total Size (MB): 148.52
…
