…
07-25 16:44:59 middle_epoch: 70
07-25 16:44:59 middle_vae_epoch: 256
07-25 16:44:59 max_epoch: 128
07-25 16:44:59 print_step: 600
07-25 16:44:59 using 1 gpus



100%|██████████| 5/5 [00:12<00:00,  2.40s/it]





100%|██████████| 5/5 [00:12<00:00,  2.49s/it]
07-25 16:45:28 Refactor network
07-25 16:45:28 ==========================================================================================
Layer (type:depth-idx)                   Output Shape              Param #
==========================================================================================
Sequential                               [128, 16, 256]            --
├─Encoder: 1-1                           [128, 32]                 --
│    └─GRU: 2-1                          [256, 128, 64]            84,864
│    └─Sequential: 2-2                   [128, 1]                  --
│    │    └─Linear: 3-1                  [128, 180]                5,940
│    │    └─ReLU: 3-2                    [128, 180]                --
│    │    └─Linear: 3-3                  [128, 1]                  180
│    │    └─Softmax: 3-4                 [128, 1]                  --
├─Lambda: 1-2                            [128, 20]                 --
│    └─Linear: 2-3                       [128, 20]                 660
│    └─Linear: 2-4                       [128, 20]                 660
├─Decoder: 1-3                           [128, 16, 256]            --
│    └─Linear: 2-5                       [128, 32]                 672
│    └─GRU: 2-6                          [256, 128, 32]            28,704
│    └─Linear: 2-7                       [256, 128, 16]            528
==========================================================================================
Total params: 122,208
Trainable params: 122,208
Non-trainable params: 0
Total mult-adds (G): 3.72
==========================================================================================
Input size (MB): 2.10
Forward/backward pass size (MB): 29.62
Params size (MB): 0.49
Estimated Total Size (MB): 32.21
==========================================================================================
07-25 16:45:28 Prediction network
07-25 16:45:28 ==========================================================================================
Layer (type:depth-idx)                   Output Shape              Param #
==========================================================================================
Sequential                               [128, 5]                  --
├─Encoder: 1-1                           [128, 32]                 --
│    └─GRU: 2-1                          [256, 128, 64]            84,864
│    └─Sequential: 2-2                   [128, 1]                  --
│    │    └─Linear: 3-1                  [128, 180]                5,940
│    │    └─ReLU: 3-2                    [128, 180]                --
│    │    └─Linear: 3-3                  [128, 1]                  180
│    │    └─Softmax: 3-4                 [128, 1]                  --
├─Lambda: 1-2                            [128, 20]                 --
│    └─Linear: 2-3                       [128, 20]                 660
│    └─Linear: 2-4                       [128, 20]                 660
├─Linear: 1-3                            [128, 128]                --
│    └─Linear: 2-5                       [128, 64]                 1,344
│    └─Linear: 2-6                       [128, 128]                8,320
├─Sequential: 1-4                        [128, 128]                --
│    └─Linear: 2-7                       [128, 128]                16,512
│    └─ReLU: 2-8                         [128, 128]                --
│    └─Dropout: 2-9                      [128, 128]                --
├─Linear: 1-5                            [128, 5]                  645
==========================================================================================
Total params: 119,125
Trainable params: 119,125
Non-trainable params: 0
Total mult-adds (G): 2.79
==========================================================================================
Input size (MB): 2.10
Forward/backward pass size (MB): 17.34
Params size (MB): 0.48
Estimated Total Size (MB): 19.91
==========================================================================================
…
